…
2023-01-06 12:15:18 INFO     dataset: toys
2023-01-06 12:15:18 INFO     user number: 19412
2023-01-06 12:15:18 INFO     item number: 11925
2023-01-06 12:15:18 INFO     average seq length: 8.6337
2023-01-06 12:15:18 INFO     density: 0.0007 sparsity: 0.9993
2023-01-06 12:15:18 INFO     data after augmentation:
2023-01-06 12:15:18 INFO     train samples: 128773	eval samples: 3882	test samples: 15530
2023-01-06 12:15:18 INFO     [1] Model Architecture ------------------------
2023-01-06 12:15:18 INFO     total parameters: 1864194
2023-01-06 12:15:18 INFO     MELOD(
  (indu_loss_func): MarginRankingLoss()
  (item_embedding): Embedding(11926, 128)
  (seq_encoder): Transformer(
    (pos_emb): Embedding(50, 128)
    (emb_dropout): Dropout(p=0.5, inplace=False)
    (attention_layernorms): ModuleList(
      (0): LayerNorm((128,), eps=1e-12, elementwise_affine=True)
      (1): LayerNorm((128,), eps=1e-12, elementwise_affine=True)
    )
    (attention_layers): ModuleList(
      (0): MultiheadAttention(
        (out_proj): NonDynamicallyQuantizableLinear(in_features=128, out_features=128, bias=True)
      )
      (1): MultiheadAttention(
        (out_proj): NonDynamicallyQuantizableLinear(in_features=128, out_features=128, bias=True)
      )
    )
    (forward_layernorms): ModuleList(
      (0): LayerNorm((128,), eps=1e-12, elementwise_affine=True)
      (1): LayerNorm((128,), eps=1e-12, elementwise_affine=True)
    )
    (forward_layers): ModuleList(
      (0): PointWiseFeedForward(
        (fc1): Linear(in_features=128, out_features=256, bias=True)
        (dropout1): Dropout(p=0.5, inplace=False)
        (act): ReLU()
        (fc2): Linear(in_features=256, out_features=128, bias=True)
        (dropout2): Dropout(p=0.5, inplace=False)
      )
      (1): PointWiseFeedForward(
        (fc1): Linear(in_features=128, out_features=256, bias=True)
        (dropout1): Dropout(p=0.5, inplace=False)
        (act): ReLU()
        (fc2): Linear(in_features=256, out_features=128, bias=True)
        (dropout2): Dropout(p=0.5, inplace=False)
      )
    )
  )
  (W1): Linear(in_features=256, out_features=256, bias=True)
  (W2): Linear(in_features=256, out_features=2, bias=True)
  (emb_drop): Dropout(p=0.5, inplace=False)
  (cos): CosineSimilarity()
)
2023-01-06 12:15:18 INFO     Start training...
2023-01-06 12:15:45 INFO     ----------------------------Epoch 1----------------------------
2023-01-06 12:15:45 INFO      Training Time :[27.3 s]	Training Loss = 4.5788
2023-01-06 12:15:45 INFO     Evaluation Time:[0.1 s]	  Eval Loss   = **
…
