…
2023-01-06 12:25:06 INFO     dataset: grocery
2023-01-06 12:25:06 INFO     user number: 14681
2023-01-06 12:25:06 INFO     item number: 8714
2023-01-06 12:25:06 INFO     average seq length: 10.3027
2023-01-06 12:25:06 INFO     density: 0.0012 sparsity: 0.9988
2023-01-06 12:25:06 INFO     data after augmentation:
2023-01-06 12:25:06 INFO     train samples: 121892	eval samples: 2936	test samples: 11745
2023-01-06 12:25:06 INFO     [1] Model Architecture ------------------------
2023-01-06 12:25:06 INFO     total parameters: 1453186
2023-01-06 12:25:06 INFO     MELOD(
  (indu_loss_func): MarginRankingLoss()
  (item_embedding): Embedding(8715, 128)
  (seq_encoder): Transformer(
    (pos_emb): Embedding(50, 128)
    (emb_dropout): Dropout(p=0.5, inplace=False)
    (attention_layernorms): ModuleList(
      (0): LayerNorm((128,), eps=1e-12, elementwise_affine=True)
      (1): LayerNorm((128,), eps=1e-12, elementwise_affine=True)
    )
    (attention_layers): ModuleList(
      (0): MultiheadAttention(
        (out_proj): NonDynamicallyQuantizableLinear(in_features=128, out_features=128, bias=True)
      )
      (1): MultiheadAttention(
        (out_proj): NonDynamicallyQuantizableLinear(in_features=128, out_features=128, bias=True)
      )
    )
    (forward_layernorms): ModuleList(
      (0): LayerNorm((128,), eps=1e-12, elementwise_affine=True)
      (1): LayerNorm((128,), eps=1e-12, elementwise_affine=True)
    )
    (forward_layers): ModuleList(
      (0): PointWiseFeedForward(
        (fc1): Linear(in_features=128, out_features=256, bias=True)
        (dropout1): Dropout(p=0.5, inplace=False)
        (act): ReLU()
        (fc2): Linear(in_features=256, out_features=128, bias=True)
        (dropout2): Dropout(p=0.5, inplace=False)
      )
      (1): PointWiseFeedForward(
        (fc1): Linear(in_features=128, out_features=256, bias=True)
        (dropout1): Dropout(p=0.5, inplace=False)
        (act): ReLU()
        (fc2): Linear(in_features=256, out_features=128, bias=True)
        (dropout2): Dropout(p=0.5, inplace=False)
      )
    )
  )
  (W1): Linear(in_features=256, out_features=256, bias=True)
  (W2): Linear(in_features=256, out_features=2, bias=True)
  (emb_drop): Dropout(p=0.5, inplace=False)
  (cos): CosineSimilarity()
)
2023-01-06 12:25:06 INFO     Start training...
2023-01-06 12:25:28 INFO     ----------------------------Epoch 1----------------------------
2023-01-06 12:25:28 INFO      Training Time :[22.1 s]	Training Loss = 4.1506
2023-01-06 12:25:28 INFO     Evaluation Time:[0.1 s]	  Eval Loss   = **
…
